NN_ML_AI_NLP_DL/Tasks.pth (torch, 7047 bytes, 6 tensors)

l1.weight f4 [8, 69]
000000 46 c0 97 bf 60 d6 d2 3f 2c 21 52 bf b6 b3 cf bc
       -1.1855552 1.6471672 -0.82081866 -0.025354248
000010 cc cf d7 3f ea 37 7c be 5b 09 7a be 4d 0c 8a 3f
       1.686029 -0.24630705 -0.24417631 1.0785004
000020 e4 94 17 3f bf d7 e8 3e aa 2c 75 be 32 9b c0 3f
       0.59211564 0.454771 -0.23942819 1.5047362
000030 a4 e3 a5 3b 38 c5 4e 3f cb 09 8b 3f 27 78 98 3f
       0.0050625373 0.8076968 1.0862364 1.1911668
000040 f3 d9 82 3f 5c 50 12 3f 90 a1 82 bf fe c2 70 be
       1.0222763 0.5715387 -1.0205555 -0.23511884
000050 f2 d4 01 be f1 10 71 be 66 47 52 3f b3 d1 1c 40
       -0.12678888 -0.23541619 0.82140195 2.450299
000060 be 77 d2 3f 64 8b 7f 3f 9c fd cd 3f 96 7c 9f 3f
       1.6442792 0.9982207 1.609302 1.2459896
000070 25 19 aa 3e 63 0f 0a 3f 72 07 ca be 91 16 83 3f
       0.3322231 0.5392973 -0.39458805 1.0241262
000080 cc 13 8f bd 8f d5 a2 3f 09 64 98 3f 4f 5a e1 3f
       -0.06986198 1.2721423 1.1905528 1.7605685
000090 57 ff a1 3e 14 f1 73 be 69 f0 1b 3e f7 d5 a0 3f
       0.3164012 -0.23822433 0.15228428 1.2565297
0000a0 46 2b 88 3e 48 db 2e be e6 ee f7 bd 3f 3c 18 be
       0.26595515 -0.17075837 -0.12106113 -0.14866732
0000b0 33 d7 5d 3f 96 df ae 3e 2a 49 50 bf 26 bd 39 bf
       0.8665649 0.34154958 -0.8136164 -0.7255424
0000c0 31 df b8 3f cf 3d d6 be 62 4a 4f bf 82 36 70 be
       1.4443113 -0.4184403 -0.80972874 -0.23458293
0000d0 d1 97 52 40 7c e6 79 be 00 3d b8 3e 59 cd c7 bd
       3.2905161 -0.24404329 0.3598404 -0.09755964
0000e0 19 c8 22 be 2c b5 1b 3f a4 78 41 40 cc 82 da 3f
       -0.15896644 0.6082332 3.0229883 1.7071166
0000f0 58 ef df be ec 17 5f 3e 26 dd 63 bf e6 7d 8b 3f
       -0.43737292 0.21786469 -0.8900932 1.0897796
000100 24 12 82 3f 85 e1 5f be 88 99 0f bd c5 f8 10 3f
       1.0161786 -0.21863373 -0.03505853 0.5662959
000110 82 ac 83 3f f6 fe a2 3f 1e 9e 0b 40 d5 39 5d bf
       1.028702 1.2734058 2.1815257 -0.8641637
000120 ac 3c aa 3f 48 9a 9e 3d 78 11 4d 3e 51 88 1a 3f
       1.3299766 0.077442706 0.20026195 0.6036425
000130 32 44 15 be 01 f4 eb 3e 47 2c 87 3f 84 4d f3 3f
       -0.14576796 0.46084598 1.0560387 1.9008031
000140 7c 4f ef bb fb ab 20 3d 70 d2 3b bf c5 ec da 3e
       -0.0073031764 0.039226513 -0.7336798 0.42758766
000150 87 78 5b bd 30 91 00 3f ee 18 19 3f 02 7d 49 bf
       -0.05358174 0.5022154 0.59803665 -0.7870637
000160 87 f0 9e 3f 76 6b d4 be 64 5d 56 be 52 d9 0a bf
       1.2417153 -0.41488236 -0.20934063 -0.54237854
000170 09 46 9d 3f eb 26 22 be 3b 08 5c bd 87 f1 b9 bd
       1.2286998 -0.15835159 -0.053718787 -0.09079271
000180 5a a7 ea be e4 ee a9 3e 9c df 37 37 70 e6 e6 3e
       -0.45830804 0.33190072 1.0959713e-05 0.45097685
000190 6f d8 60 3e df 3d 03 bf 1a af f4 be ae c7 13 bf
       0.21957563 -0.5126628 -0.47789842 -0.5772656
0001a0 c9 e2 cd be 43 a7 62 3e a3 c9 8e 3f 83 69 ba 3e
       -0.40212086 0.22134118 1.1155285 0.36408624
0001b0 27 12 cc 3d b4 f8 00 3f d1 0b e2 be c4 77 93 be
       0.099644 0.5037949 -0.4414964 -0.2880231
0001c0 e9 95 f0 bd 3a 1e de 3e 94 e3 33 3e 9e ed 5b be
       -0.11747343 0.43382436 0.17567283 -0.21477363
0001d0 92 7b 84 bd 8b 02 9a 3f e6 73 ef 3e 3d 4a 4e 3f
       -0.06468882 1.2032026 0.4676811 0.8058203
0001e0 98 56 fa 3e 9b a8 9d 3f d4 6f 84 3e 89 87 48 3e
       0.4889419 1.2317079 0.25866568 0.19582953
0001f0 b7 bb 87 3f b9 b2 2a 3e c3 9d c5 be 60 64 2f 40
       1.0604161 0.1666974 -0.38596925 2.7405014
000200 78 f3 c7 bc 9a d5 50 be d8 5a f6 be 70 54 9a bf
       -0.024408087 -0.20393983 -0.48116183 -1.2057018
000210 fc 45 59 3f 97 39 6f 3f b5 35 d4 3e 50 ad 56 3f
       0.8487241 0.9344725 0.41447225 0.83858204
000220 28 8f c0 3f 86 26 b8 3e ce 82 ec 3f 09 4c c1 3f
       1.5043688 0.3596689 1.8477418 1.5101329
000230 64 68 0a c0 cc 99 67 3f cc 2d 04 3f 0f 4c 55 3e
       -2.1626215 0.9046905 0.5163238 0.20829795
000240 fd 3f ee bd 0c 6d f0 3e 12 7b 92 3f f8 db 2b 3f
       -0.116332985 0.46958196 1.1443808 0.6713252
000250 f2 57 50 40 70 12 df 3e 13 50 82 be 96 22 c1 3f
       3.2553678 0.43568754 -0.25451717 1.508868
000260 cc 4f f0 bd e6 25 e5 3e 9e fd 3c bd 6b 85 ea 3f
       -0.1173397 0.44755477 -0.046140306 1.8321966
000270 cd f1 2a bf ef 5c da 3e c9 d6 b2 bd 1e f0 87 bd
       -0.6677521 0.42649028 -0.08732373 -0.066375956
000280 ce 33 07 40 04 68 cb bd f6 c3 16 40 e0 94 ec 3c
       2.112537 -0.09931949 2.3557105 0.028879583
000290 d8 3a fa 3e 42 23 d5 3f 3f 7a 74 3f c2 7b ee 3e
       0.4887302 1.6651385 0.9549903 0.46578795
0002a0 ff 4e fc be 08 41 e8 3e 1a 45 8b bf 3d 23 ba 3f
       -0.4927902 0.45362115 -1.0880463 1.4542004
0002b0 bf 9e a2 3f 8b 97 d1 bd 35 ba 21 3f b2 cf 87 3f
       1.2704695 -0.10233983 0.63174754 1.0610259
0002c0 82 cf f5 bd dd 27 09 40 c3 5a a7 be b0 ef ab bd
       -0.120024696 2.143058 -0.32686433 -0.08395326
0002d0 27 db 39 3e af d5 f6 3d 24 89 3e 3f 9d a8 3d 3e
       0.18150006 0.12052476 0.7442801 0.18521352
0002e0 7a 1c 11 40 13 92 1f 40 e7 0d 91 bc e9 82 dd be
       2.267363 2.4932907 -0.017706824 -0.4326394
0002f0 7c fb 68 3f b3 fb 0a 3f e9 05 0d 3e 92 b5 4a bb
       0.91008735 0.5429031 0.13771786 -0.0030930978
000300 a3 c0 21 3f b7 3b 19 bd 98 52 83 3e 40 f5 74 3f
       0.63184565 -0.037410464 0.25648952 0.9568672
000310 c1 05 24 40 cf 69 1a 3f 49 ef ab 3e d3 32 18 40
       2.5628512 0.603177 0.33580998 2.378102
000320 1a 7f 8c bf b0 8d f8 3e b4 b7 ae 3e 57 b2 ab 3f
       -1.0976288 0.485456 0.3412453 1.34138
000330 b6 64 2c 40 ef 3c 2d 40 f5 3d 08 40 6a e1 6d 3f
       2.693647 2.706844 2.1287816 0.9292208
000340 48 4b 00 40 43 cf c8 bf 89 ec 7e 3f 04 fe 14 40
       2.0045948 -1.5688251 0.99579674 2.328004
000350 c6 a5 2e 40 b9 2c 20 40 0a 5a fa 3f af 4c ec 3f
       2.728868 2.5027297 1.9558728 1.8460902
000360 e1 e8 b0 3f d2 14 83 bd 0e b3 08 40 98 b4 30 40
       1.3821069 -0.064004555 2.1359286 2.7610226
000370 45 38 3a be 87 2d 2c 40 08 33 eb 3f aa 64 2e 40
       -0.18185528 2.6902788 1.8374949 2.724894
000380 67 92 1e 40 f4 55 a3 bf 7f 2e b7 bd dd 9e ca bd
       2.4776857 -1.2760606 -0.08944415 -0.09893582
000390 b0 c2 47 40 cb 85 b1 3f e4 b2 b4 bd 17 83 9f bd
       3.1212578 1.3868955 -0.08823183 -0.07788675
0003a0 4d 98 9b 3f 3d 1a 15 40 b5 a4 05 40 0e 05 7a 3f
       1.2155854 2.3297265 2.088178 0.9766396
0003b0 96 c6 b2 3e ba 1a bd 3f c6 d3 10 40 b0 a6 43 40
       0.34917134 1.4773781 2.2629256 3.0570488
0003c0 3c 12 d7 3f 04 00 ea 3f 49 02 58 40 36 d0 ef 3e
       1.680244 1.8281255 3.3751395 0.4683854
0003d0 0c 9b c0 3f c6 d7 07 40 5d 42 77 3f 45 9d 91 3f
       1.5047317 2.1225448 0.9658564 1.137612
0003e0 c2 01 c2 bd 0b 93 fa 3f 9a ad 07 40 e2 93 18 40
       -0.094729915 1.9576124 2.1199708 2.384026
0003f0 cb d4 b5 3e d8 48 19 be d4 d3 45 be 0f 8e 30 40
       0.3551391 -0.14969194 -0.19319087 2.7586706

l1.bias f4 [8]
000000 10 81 5b 3e e8 9b 3c 3f ba 25 6d bc f8 45 d8 3c
       0.21435952 0.73675394 -0.014474327 0.026400551
000010 e6 b4 76 3f 1c 72 91 bb 08 d9 5d bc d1 b9 81 3c
       0.9636978 -0.0044386517 -0.013540514 0.015835674

l2.weight f4 [8, 8]
000000 bf 27 c9 3f 24 b4 a6 3f ca f3 8d 3e 75 b3 0c be
       1.5715255 1.3023725 0.2772506 -0.13740332
000010 4f fc c4 3f 52 e8 ce bf 34 4d da be 93 27 a7 3f
       1.5389498 -1.6164649 -0.42637026 1.3058952
000020 1a ee bf 3e 62 37 5d bd 7b ae 8e bf e5 03 4d 40
       0.37486345 -0.054007895 -1.1146997 3.2033627
000030 9e 53 e6 3d 81 54 92 3f df d9 95 40 74 3f b5 3f
       0.112464175 1.1432039 4.6828456 1.4159989
000040 ea 2f 63 3e e7 30 5e 3f d5 8d e1 3f 02 55 10 40
       0.22186247 0.8679337 1.7621409 2.2551885
000050 23 1d cd be 7c 4b 5c 40 e9 6f b8 3f c1 ae f4 bf
       -0.40061292 3.4421072 1.4409152 -1.9115831
000060 5a bb af bf 25 90 a4 3f 55 11 93 3f e9 0f dd 3e
       -1.372905 1.285649 1.1489664 0.431762
000070 ae 02 96 3f ee 74 63 40 bb 91 ad bf 6c 58 84 3f
       1.1719568 3.5540118 -1.3560098 1.0339484
000080 33 d9 0b c0 d8 67 0d bf cc 1e 14 40 8f b0 55 3e
       -2.1851318 -0.5523658 2.3143797 0.20868133
000090 53 53 25 bf 87 61 94 40 1a 95 00 40 f1 00 15 40
       -0.6458027 4.636905 2.0091004 2.3281825
0000a0 d2 36 93 bf 4f eb 25 3f df de d1 3f 97 f7 8f 3f
       -1.1501105 0.6481218 1.639614 1.1247433
0000b0 a9 14 86 3f f8 7e 60 3d 26 4f 47 40 a1 83 9f bf
       1.0475055 0.054808587 3.1142058 -1.2462045
0000c0 cc df 3c 40 9a a8 e7 3e d6 0d 30 40 55 56 45 40
       2.9511595 0.4524582 2.7508445 3.0833943
0000d0 e6 ea 7e bf fd 06 0c bd e6 6f 96 bf f2 6d 53 3f
       -0.99577177 -0.034186352 -1.1752899 0.8258964
0000e0 d1 fe c7 3f 04 0e 45 3f f2 2b 93 40 bd 7a 54 3c
       1.5624639 0.7697451 4.5991144 0.012968716
0000f0 5c 01 e1 be 35 c6 09 40 a4 90 20 bf fe 1c 40 3e
       -0.4394635 2.1527226 -0.62720704 0.1876106

l2.bias f4 [8]
000000 62 1b d0 3e 8e e0 9f 3c eb e6 bd be 48 f8 0a 3f
       0.4064589 0.019516256 -0.3709024 0.542851
000010 34 91 ad 3f 9d 1d 7a 3f a4 d9 a5 be cf 92 a4 be
       1.3559937 0.97701436 -0.3239261 -0.32143256

l3.weight f4 [31, 8]
000000 78 59 f5 3e ec 45 02 c0 8f e1 03 c0 e9 c6 05 3f
       0.47919822 -2.0355177 -2.060642 0.5225664
000010 bb b8 81 c0 09 d6 0e 3f 8f 0e 33 c0 ea 66 d8 bf
       -4.0538 0.5579534 -2.7977636 -1.6906407
000020 ec 4e 12 c0 61 27 2b 3f 09 3c 19 c0 65 22 92 c0
       -2.286067 0.6685696 -2.3942893 -4.5666986
000030 c9 2a 3d bf 31 99 d0 bf ab 11 a1 bf c8 01 3c c0
       -0.7389341 -1.629675 -1.2583517 -2.9376087
000040 12 98 d2 bf 21 87 73 bf 17 09 60 bd a0 93 7a c0
       -1.6452658 -0.95128065 -0.05469617 -3.9152603
000050 82 a8 03 c0 f5 9e 83 bf b3 b0 8d be cf 6b 93 3d
       -2.05716 -1.0282885 -0.27673873 0.07198297
000060 f1 3d 2d c0 9c ca 92 3d ac 6f 2f bf 84 e5 8e c0
       -2.7069056 0.07167551 -0.6852977 -4.465517
000070 cb 54 8c bf a8 14 ca bf d2 d9 0a bf 0b 61 1c c0
       -1.0963377 -1.5787554 -0.5423862 -2.443423
000080 eb c0 64 3e 99 9e 11 be 54 4d a9 c0 61 57 da be
       0.22339217 -0.14220656 -5.2906895 -0.4264479
000090 b7 a3 83 c0 15 84 10 bf 90 90 98 3e 10 25 15 bf
       -4.1137347 -0.5645154 0.29797792 -0.5825968
0000a0 f1 97 75 c0 9c c7 37 3e 09 c4 df bf 16 cb 62 c0
       -3.8373988 0.17947239 -1.74817 -3.5436454
0000b0 63 1b 2e bf 5a 9e 49 c0 30 89 4d 3e 96 0a 76 bf
       -0.6801054 -3.15029 0.20071864 -0.961099
0000c0 f5 87 b7 be 45 f6 83 be 04 ce d7 c0 80 03 7d bd
       -0.35845914 -0.25773826 -6.7438984 -0.061770916
0000d0 e9 84 27 c0 85 5a 87 be 6e db 12 be cc b7 d5 be
       -2.6174872 -0.26436248 -0.14341518 -0.41741788
0000e0 3e d3 ef bc f3 89 75 bf 5d d0 43 be 4d 6e e5 bd
       -0.029275533 -0.9591362 -0.19122453 -0.11202679
0000f0 e8 dc ae c0 b9 41 89 bd 73 33 4d bf 64 e5 24 be
       -5.464466 -0.06701989 -0.8015663 -0.1610313
000100 00 58 69 3e b1 35 cd be d7 b1 8f c0 b7 ee 5f bd
       0.22787476 -0.40080026 -4.490459 -0.054671016
000110 5f a7 dc bf d0 b1 f9 be 65 da 9f bf 94 25 34 c0
       -1.7238578 -0.48768473 -1.2488524 -2.8147936
000120 d6 03 59 c0 c9 84 a6 c0 79 1b 0f 40 c3 98 39 bf
       -3.3908591 -5.203709 2.2360518 -0.7249872
000130 c0 66 51 40 bc 9a ae 3f 23 73 ed 3f 3e 9b 69 c1
       3.2718964 1.3640971 1.8550762 -14.600401
000140 9b 80 75 c0 2b 6b a1 bf 2f ca 6f bd 64 ed 8a c0
       -3.8359745 -1.261083 -0.058542427 -4.3414783
000150 4f 43 93 be 9c 56 0a c0 1b 74 8c bf 70 0a db 3e
       -0.2876229 -2.1615362 -1.0972933 0.427814
000160 71 57 6e c0 f8 22 28 be 65 73 bb 3e 6d f6 85 c0
       -3.724087 -0.1641959 0.36611477 -4.1863313
000170 a8 3a 05 bf 08 fc 9e bf 52 00 43 c0 be 4e c1 bf
       -0.5204263 -1.2420664 -3.0468946 -1.5102155
000180 73 d9 2a 3d db e6 3a c0 94 be 23 be 9f d7 96 be
       0.041711282 -2.9203403 -0.15990669 -0.2946138
000190 56 d4 47 c0 ae c6 8c 3d 03 7d 80 bf 49 c5 6f 3b
       -3.122335 0.06873833 -1.003815 0.0036586097
0001a0 62 51 b3 bf 13 2a ad be fe 6e 4f be 51 2e 44 c0
       -1.4009211 -0.33821163 -0.20257184 -3.065327
0001b0 2b d7 77 c0 a0 6a 2b c0 0d 25 8c 3e 31 13 3f 3f
       -3.8725078 -2.6783829 0.27372018 0.7463866
0001c0 e4 81 ec bd 07 c9 73 3e 87 f9 4d c0 48 aa 78 be
       -0.11548212 0.23807155 -3.218355 -0.24283707
0001d0 4c 52 57 c0 54 c4 5c 3c 12 7a 19 bf 82 c7 45 c0
       -3.364398 0.013474543 -0.5995189 -3.090302
0001e0 50 fe 5c bf f0 2c f1 3e ee c1 97 c0 24 ac a7 c0
       -0.8632555 0.47104597 -4.742423 -5.2397633
0001f0 b9 d1 60 bf d6 b5 3b c0 c2 bd b9 3d 73 29 0d be
       -0.8782001 -2.9329734 0.090693966 -0.13785343
000200 5c 8f ba 3d ee a0 16 bd 4d d7 ae bf ff 5a 9f be
       0.09109375 -0.03677457 -1.3659455 -0.31124112
000210 96 60 ae c0 c4 65 25 3d 54 21 58 bf 5b 3e c6 bf
       -5.4492903 0.040380254 -0.84425855 -1.5487779
000220 00 ba ac be ea 14 20 c0 05 7e 13 3f da ed 20 3e
       -0.33735657 -2.5012765 0.57614166 0.15715733
000230 a2 77 31 c0 c8 47 0d 3e 09 2f 4e c0 8d 6f 24 bf
       -2.7729268 0.13796914 -3.2216208 -0.64232713
000240 b0 1b 52 3d 38 13 20 c0 75 1d 08 3e a9 8c 97 c0
       0.051295936 -2.501173 0.13292487 -4.7359204
000250 c1 dd 00 c0 8f 8f 34 c0 88 58 9a 3f e1 ac 80 3f
       -2.0135348 -2.8212621 1.2058268 1.0052758
000260 45 5b 58 c0 ff 65 32 c0 f1 57 1c 3f b1 30 21 c0
       -3.3805707 -2.7874753 0.6107169 -2.518597
000270 4b cc b5 bf 9b c7 5e c0 c7 19 f9 3e c4 68 31 3f
       -1.420297 -3.480933 0.4865248 0.69300485
000280 4e c1 07 bf 29 8b fc 3e ee 4f 1c c0 d6 e4 af c0
       -0.53029335 0.4932492 -2.4423785 -5.496684
000290 e7 78 f0 bf 46 24 c7 bf 2c 5a c0 3e 14 04 44 c0
       -1.8786896 -1.5557945 0.37568796 -3.062749
0002a0 e1 c8 b1 3c 3d ae c4 bc 91 eb bd c0 f7 a2 e1 bd
       0.021702232 -0.024008865 -5.9350057 -0.11017411
0002b0 8a 8e 26 c0 30 a8 dc bd 92 d1 58 3e 08 79 3c c0
       -2.60245 -0.10774267 0.21173695 -2.9448872
0002c0 cd 85 80 c0 17 3b 77 bf f1 5e 0a bf 83 16 5a c0
       -4.016333 -0.9657454 -0.5405112 -3.407624
0002d0 fe 2e 85 bf 08 8c 35 c0 af 68 fd 3e e2 d2 80 3e
       -1.0404966 -2.8366718 0.4949393 0.2516089
0002e0 86 c4 88 bf 5d e5 ff 3e 73 72 1f c0 97 e7 67 c0
       -1.0684974 0.49979678 -2.4913604 -3.6235101
0002f0 7e 6b 15 c0 23 c4 84 c0 40 68 82 3f e7 27 45 bf
       -2.3346858 -4.1489425 1.0188065 -0.7701401
000300 a9 96 93 be 5f 0c 8b bf 79 0a 1d c0 2d de 6a 3e
       -0.28825882 -1.086315 -2.4537642 0.22936316
000310 1a ca 12 c0 21 de 99 bd 27 d9 bf bf 84 f4 a3 be
       -2.2935853 -0.07513071 -1.4988145 -0.32022488
000320 68 17 49 c0 d3 6f 10 c0 35 5d b8 3e 7c 48 a8 bf
       -3.1420536 -2.2568252 0.3600861 -1.314712
000330 b3 ec dd bf b1 59 dd bf 5c 2a 38 bf ed 5c db bb
       -1.733786 -1.7292997 -0.71939635 -0.006694427
000340 eb ce 3a bd 93 65 a9 bf cb 97 54 bf 67 a6 a1 3d
       -0.04560749 -1.3234123 -0.8304412 0.07893067
000350 55 bf 80 c0 8e fe a1 bd e2 50 26 c0 1b a1 f5 bf
       -4.023356 -0.079098806 -2.5986867 -1.918979
000360 50 f1 05 3e 3f a7 20 3e 15 5d 62 bf 76 13 0e bf
       0.13080335 0.156888 -0.8842328 -0.55498445
000370 be f3 41 c0 57 c7 1f 3d 8f b6 87 c0 52 39 34 c0
       -3.0305018 0.039008465 -4.241035 -2.8159986
000380 8e be 94 3e e7 d6 02 c0 bc 4f 19 c0 1a 69 bf be
       0.29051632 -2.0443666 -2.3954916 -0.37384874
000390 a1 b9 8f c0 3d 59 83 be 87 3a 32 3e 6b 46 1e 3d
       -4.49141 -0.2565402 0.17405139 0.038641375
0003a0 09 17 48 3c 1a 73 76 3e df 32 63 c0 a5 6e cc be
       0.012212523 0.24067345 -3.54998 -0.39928165
0003b0 ce d0 20 c0 fc 65 b4 3d cc be 8c c0 6a fc 1a c0
       -2.5127444 0.088085145 -4.3982906 -2.4216561
0003c0 91 b4 cd bf 3d 41 14 bf dd ae 5d bf 40 1d 98 bf
       -1.607073 -0.57912046 -0.86594945 -1.1883926
0003d0 b8 c5 a4 bf d6 78 8a c0 40 cf b7 be f9 ef 0a be
       -1.2872839 -4.3272505 -0.35900307 -0.13568105

l3.bias f4 [31]
000000 a9 62 be 3e 9a 2c 1b c0 ea 3a 2d c0 05 83 37 c0
       0.37184647 -2.4245973 -2.7067208 -2.8673718
000010 6a 15 59 be bf e5 03 c0 be 25 2b 3e 65 b7 c4 be
       -0.21199575 -2.0608976 0.16713616 -0.3842117
000020 20 74 a9 bd 7d 36 20 40 3e a4 f6 bf 12 25 f5 bf
       -0.08274102 2.5033257 -1.9268873 -1.9151938
000030 5f ac 50 bc 49 18 1a c0 95 60 68 3e 4d c6 df bf
       -0.012736409 -2.4077322 0.22693093 -1.7482392
000040 f9 62 06 bf f4 92 4a bc 70 0d 16 be 75 99 01 c0
       -0.5249477 -0.012364138 -0.14653563 -2.0249913
000050 41 f0 eb bf 60 59 51 be 5a 29 06 c0 6e 97 a4 bf
       -1.8432695 -0.2044425 -2.096274 -1.2858713
000060 a5 4a 86 be 50 22 40 c0 05 e5 97 3d a9 56 d6 3d
       -0.26228824 -3.0020943 0.07416729 0.10465748
000070 1c 5e 15 be ea 07 b2 bd 20 de 09 c0
       -0.14586681 -0.08692916 -2.1541824
